Khec_chat/data.pth (torch, 31127 bytes, 6 tensors)

l1.weight f4 [8, 464]
000000 e6 26 c5 3f 25 64 f8 be ae 55 97 3f 93 f8 96 3f
       1.5402496 -0.48513904 1.1823022 1.1794609
000010 87 c3 8c 3f e7 6f 9a 3f 8b 82 96 3f 12 1c 9a 3f
       1.099717 1.20654 1.1758589 1.2039816
000020 ae 68 8c 3f a6 7c 92 3f ac 2e bb 3f e6 02 41 40
       1.0969446 1.144429 1.4623618 3.015802
000030 40 6c 42 40 c8 84 63 bf 08 3e d0 bf d2 62 56 3f
       3.037857 -0.88874483 -1.626893 0.8374454
000040 13 d0 03 40 f8 d2 1c 40 f8 bc aa 3f 93 21 8a bf
       2.0595748 2.4503765 1.3338919 -1.0791496
000050 04 10 ba be 17 60 2c 40 a2 11 3d bf 60 ca 0c bf
       -0.36340344 2.6933649 -0.7385503 -0.549963
000060 b4 b2 f8 3e 98 2e 70 40 97 1b 61 bd 0f a6 e9 3f
       0.4857384 3.7528439 -0.054957952 1.8253802
000070 23 c5 f7 3f f1 14 44 40 4c 1b 39 c0 51 92 1f c0
       1.9357036 3.0637782 -2.892291 -2.4933054
000080 e4 82 02 40 fe 58 92 3f 8a 1d 43 3f 4d 81 88 3f
       2.039239 1.1433408 0.7621695 1.066446
000090 56 d9 cd 3f 96 61 b1 3f 9b b9 af 3f ea f1 53 40
       1.6081951 1.3857906 1.3728517 3.3116403
0000a0 38 6b d3 3f 84 28 22 c0 18 d7 b5 be ca f4 2c 40
       1.6517096 -2.5337229 -0.35515666 2.7024407
0000b0 a8 75 7b bf ea d2 24 c0 f0 41 20 40 38 9c b3 bf
       -0.98226404 -2.5753732 2.5040245 -1.4032049
0000c0 b1 00 15 c0 b8 b2 05 3f 01 dc db 3f e8 ab 14 40
       -2.3281672 0.5222583 1.7176515 2.3229923
0000d0 cb ba 1c 3f 18 e6 3b 40 fd 0e 39 3e 5b 11 86 bf
       0.61222523 2.9359188 0.18072124 -1.0474046
0000e0 c0 c9 06 3f b9 43 a6 bf 8e 91 27 3f c6 e8 49 bf
       0.52651596 -1.2989417 0.65456474 -0.7887081
0000f0 3f 0f 6f 3f 71 80 76 40 46 f0 80 3f d4 c6 03 40
       0.9338264 3.8515894 1.0073326 2.0590105
000100 60 51 b5 3f 5a 9b 06 3f d8 e3 57 3f a6 a1 5c bf
       1.4165459 0.525808 0.84332037 -0.86184156
000110 6e da 69 be c1 93 32 bf d0 54 7b 3f 2a 07 34 3f
       -0.2283723 -0.69756705 0.9817629 0.7032343
000120 4c 90 77 3f 44 33 d0 bf d9 41 f9 3f 36 ca af bd
       0.96704555 -1.6265645 1.947322 -0.085834906
000130 6f 2b 04 c0 2a 47 de 3f d5 09 08 40 bc 8c 06 40
       -2.065151 1.7365468 2.1256 2.1023397
000140 8b f9 18 3b 6f 41 47 bf 8b fd 1f 40 f5 2c e3 3f
       0.0023342099 -0.7783422 2.49985 1.7748095
000150 08 02 13 40 5c e2 32 3f 11 e9 9c 3f c7 70 5e 40
       2.296999 0.69876647 1.2258626 3.4756334
000160 5c 0b 12 40 4c 07 8c 3f 37 24 60 3e 12 00 33 be
       2.2819433 1.0939727 0.21888815 -0.17480496
000170 b1 68 24 bd 44 b9 51 3d 6e 65 dc 3d 04 a0 06 40
       -0.040138904 0.051202074 0.10761534 2.1035166
000180 3a 46 27 3f 24 c3 5b 3f fd d3 14 3d 83 fc b1 3f
       0.6534153 0.85844636 0.03633498 1.3905185
000190 67 d4 a2 be 44 e7 de 3e 70 47 b5 3f d2 b5 a5 bf
       -0.31802675 0.43535817 1.4162426 -1.2946112
0001a0 6a a6 85 3e cf 46 5f bd 31 17 d8 3f 99 86 b9 3e
       0.26103526 -0.054510888 1.6882077 0.36235502
0001b0 9a 9a fa 3f bb 13 ed bf fa d8 ef bf fb e5 ed 3f
       1.9578431 -1.8521646 -1.8738091 1.858581
0001c0 5e 6f c8 bf ad 8f 17 40 41 05 c3 3f 3e 9d 6d 3e
       -1.5658987 2.3681443 1.5235978 0.23204514
0001d0 3e 3e b0 3e dd 4a 49 bf 95 06 28 40 d6 87 ac 3e
       0.34422487 -0.7862986 2.6254017 0.33697385
0001e0 d5 76 2c 40 68 09 2b 40 a6 c4 d4 bf 60 c4 fe 3f
       2.694753 2.672449 -1.6622512 1.9903679
0001f0 a8 d7 3e 3f d1 f8 1b 40 d0 6b 4b 40 a3 cc c0 3f
       0.74547815 2.4370615 3.1784554 1.506245
000200 1a d7 0e 40 70 c1 13 40 76 45 36 40 9b 2e 87 3e
       2.2318788 2.3086815 2.8479896 0.26402745
000210 55 96 cc 3d fd b6 1d c0 fe 90 38 40 8b e0 28 bf
       0.09989611 -2.4642937 2.8838496 -0.65967625
000220 63 f4 ea be 49 dd 00 40 35 45 94 3f eb bc 25 40
       -0.45889577 2.0135062 1.158362 2.5896556
000230 f9 be ff 3f 88 03 3c 3f 5f 48 34 40 50 ce 90 3f
       1.9980155 0.7344289 2.8169172 1.1312962
000240 dd 53 f1 3e 8b cb 89 be bc f8 41 40 45 2f 6b 3e
       0.47134295 -0.26913103 3.0308065 0.2296725
000250 82 cd 0c c0 d0 62 65 be cb e3 f5 3f 48 29 0d 3e
       -2.2000432 -0.22400975 1.9210142 0.13785279
000260 71 a4 25 40 fa 28 9a bd 5d 56 d2 3f 27 5a b3 3d
       2.5881617 -0.07527347 1.6432606 0.087574296
000270 f6 6b 3a 3e 0c 29 1a c0 bf db 8b 3f f1 75 09 3f
       0.18205246 -2.4087553 1.0926436 0.5369559
000280 df 02 57 40 1b 17 24 40 4e eb 28 be 3b 48 b3 3e
       3.3595502 2.5639102 -0.16496012 0.35016045
000290 df f9 91 3e ec 16 25 3f 65 78 26 3e ef 96 55 3e
       0.2851095 0.644881 0.16256864 0.20858358
0002a0 c3 0e 25 c0 e7 43 a8 3f b5 8b ed 3f c0 24 28 40
       -2.579026 1.3145722 1.855826 2.627243
0002b0 8a 62 e3 3e c2 59 89 3f 81 1a 0d 3f 58 e0 6b 3f
       0.44411117 1.0730517 0.55118567 0.92139196
0002c0 11 8f 32 40 cb a9 c2 3f d4 72 de 3f e6 b4 8d 3f
       2.789982 1.5208067 1.7378793 1.1070831
0002d0 19 0f 74 3f d3 b5 89 3e 8d cf f5 be f7 d6 60 3f
       0.9533554 0.26896533 -0.4800991 0.8782801
0002e0 a2 c8 91 be f8 82 6e 3f 09 23 ee 3f 84 32 3b 40
       -0.28473383 0.9316859 1.8604442 2.9249582
0002f0 12 04 79 3f 91 19 3e 40 15 ba 3d 40 b8 8a 00 3f
       0.97271836 2.9703104 2.9644825 0.5021167
000300 1f 09 eb bc 66 ab 2b 40 9a 08 3c 40 93 67 34 3f
       -0.028690873 2.6823363 2.938025 0.7047054
000310 d0 01 0c 40 38 99 6d 3f 51 17 ce 3f 2d 4d cb 3f
       2.1876106 0.9281192 1.6100866 1.5882927
000320 2e 37 83 3f 4a b7 42 40 63 3e 2a 40 d6 e9 80 3f
       1.0251215 3.042437 2.6600578 1.0071361
000330 b4 2a 3c 40 92 49 b2 3f 61 0b 5c 3f eb 8d 54 40
       2.9401064 1.3928702 0.8595486 3.321162
000340 d4 fb 3b 40 5d 33 30 40 ed d2 09 40 6a 7f 7d 3f
       2.9372454 2.753135 2.153499 0.99022543
000350 96 cb 64 bf 48 2d 70 40 84 51 b7 bd b9 c9 0f bf
       -0.8937315 3.7527637 -0.08951095 -0.5616718
000360 6b fd 58 3d af 78 b6 3d 8f 05 32 3f 8c b7 0f 40
       0.052976053 0.08909737 0.6953973 2.2455778
000370 d6 df 93 3f 0f 6f 43 3f 2a 81 52 3f bf f2 2a 40
       1.1552684 0.76341337 0.8222834 2.671066
000380 59 96 71 3e aa 53 04 3f 2b 2c d8 3d 8a 23 df 3f
       0.2359251 0.5169016 0.10555299 1.7432721
000390 3d a9 1a 40 09 4d aa bf fc 60 99 3f fe c0 eb 3f
       2.4165795 -1.3304759 1.1982722 1.8418272
0003a0 c5 03 1a 3f ef 55 08 40 e4 c2 4c 40 97 e8 48 3c
       0.60162 2.130245 3.1993952 0.012262485
0003b0 56 c5 16 c0 28 fa 82 bf aa 53 59 40 a5 84 96 bf
       -2.3557944 -1.0232592 3.3957314 -1.175923
0003c0 02 5a 4c 40 f3 3a 70 3e 78 ce b0 3f ce 94 ad 40
       3.1929936 0.23459987 1.3813009 5.4244146
0003d0 b1 c9 01 3e d2 4d 35 be de 9a 3b c0 b2 f5 cf bf
       0.12674595 -0.17705467 -2.9313273 -1.6246855
0003e0 33 04 a1 3f 30 56 6e 3f e5 9c b6 bf d0 d4 15 3f
       1.2579406 0.9310026 -1.426663 0.5852785
0003f0 9e d0 c6 be 63 ce ad 3f e2 bd e1 3f ad fc 03 3f
       -0.38831037 1.3578609 1.7636073 0.5155743

l1.bias f4 [8]
000000 56 bc a0 3f 8f 1d 1f 3f 1e 5f 65 3f 60 f4 36 3f
       1.2557476 0.6215448 0.8959826 0.71466637
000010 6e 92 77 3f ab c0 81 3f 0e 8f 2c 3f 36 df 8b 3f
       0.9670781 1.0136923 0.67405784 1.0927494

l2.weight f4 [8, 8]
000000 51 95 47 40 87 16 0c 40 a8 2e ee be 90 c0 28 c0
       3.1184886 2.188875 -0.4651997 -2.636753
000010 94 e0 1f bf d9 3c 46 40 ca a8 1c 40 89 7a 60 be
       -0.62452054 3.0974638 2.447802 -0.21921743
000020 51 2b be be cb 86 3e bf a3 52 d6 3f 4d 49 f1 bf
       -0.37142423 -0.7442443 1.6743969 -1.8850495
000030 be e9 85 bf 2c 15 37 bf 67 3c 29 40 0e 89 fe 3f
       -1.0461957 -0.7151668 2.6443117 1.9885576
000040 64 2d a5 3f 01 8f b1 3e e2 70 d0 3f 22 99 69 40
       1.2904477 0.34679416 1.6284449 3.6499715
000050 cf af 7c be 92 dd 50 bf 35 bc 08 3f ce d8 9e bf
       -0.2467644 -0.8158809 0.5341218 -1.2409914
000060 57 01 2b 40 4b bb 70 c0 65 cf b7 3f 48 d4 01 be
       2.6719568 -3.7614315 1.4360167 -0.12678635
000070 75 c0 c9 3e ec 16 3a 3f f4 42 94 be 50 8c 35 3f
       0.39404646 0.72691226 -0.2895733 0.70917225
000080 54 9e d4 3f 67 8b 35 3f fd 82 78 be b8 ac ec 3f
       1.6610818 0.70915836 -0.24268718 1.849021
000090 f3 a9 c3 bf 9d 30 d1 bf f5 5e a4 3f b4 e8 2c 40
       -1.5286239 -1.6342961 1.2841479 2.701703
0000a0 dc ba 96 3e d7 1f 2d 40 32 96 04 3f 83 81 a9 3f
       0.29439437 2.7050683 0.5179168 1.3242649
0000b0 5f 79 9e bf 53 0f 78 3d 7e c9 5e 3f 11 3c 55 bf
       -1.238079 0.06056149 0.870262 -0.8329478
0000c0 a0 40 aa bf e0 dc b7 3f c9 58 09 40 71 50 5f bf
       -1.3300972 1.4364281 2.146044 -0.8723212
0000d0 3a cd 58 40 5c 1a 83 3e 44 8d d5 bf 32 0b e2 3f
       3.387526 0.25606048 -1.6683736 1.7659667
0000e0 a6 98 19 c0 73 37 a6 3f ca ec bb bd 2b 03 08 3f
       -2.399942 1.2985672 -0.09176023 0.53129834
0000f0 51 01 33 3f ac f8 1f 40 33 6b ab 3f 27 51 8a 3f
       0.69923884 2.4995527 1.339209 1.0806016

l2.bias f4 [8]
000000 3b 95 84 3f 29 25 08 bf 1e cc 4a bd 1a cb 06 3f
       1.0358042 -0.531817 -0.049511068 0.5265366
000010 d6 4d 4b 3f 1c 26 c3 be a5 8a 37 3f 8e 3a f2 be
       0.79415643 -0.38115013 0.7169593 -0.473103

l3.weight f4 [132, 8]
000000 d4 52 e6 bf 7e 60 c7 3e 0b 1b 6f bf a5 e5 3e c0
       -1.7994027 0.38940805 -0.9340064 -2.9827664
000010 13 69 0b 3f 1c b7 b5 bf fa a5 21 3e 37 dc a4 bf
       0.54457206 -1.4196506 0.15785971 -1.2879704
000020 6d 44 52 be fd e8 27 3f 72 a9 46 c0 5b 53 af bf
       -0.20533915 0.65589887 -3.1040921 -1.3697313
000030 33 26 3a 3e 44 71 ca bf dc 05 08 c0 58 6f 37 3f
       0.18178634 -1.5815816 -2.1253576 0.7165427
000040 6a ed 1f 3e e8 de ba 3e 73 41 85 c0 48 31 bf c0
       0.1561791 0.3649819 -4.1642394 -5.974766
000050 a7 3a f8 bf 89 d1 24 bf 7b 5a c3 bd 85 03 40 3f
       -1.9392899 -0.64382225 -0.09538742 0.7500537
000060 53 9f 4f bf 68 31 0d 3f 73 a8 95 bf 18 f2 cc c0
       -0.81102484 0.5515351 -1.1692032 -6.4045525
000070 0e 2e df 3e a3 ed 37 bf 6e 1d 4d c0 bd c9 07 bf
       0.43589824 -0.7184698 -3.2049212 -0.53042203
000080 86 7f eb be c8 86 b5 3e 84 eb 27 bf 15 1a 78 bf
       -0.4599573 0.35454392 -0.65593743 -0.969148
000090 1d ba bd bf 6f b2 61 bf fa 02 3b bf 35 ae 47 bf
       -1.4822422 -0.88162893 -0.73051417 -0.78000194
0000a0 95 d6 9b c0 61 1a d9 3e 59 19 53 3e bb 90 8c 3e
       -4.869944 0.42402938 0.20615138 0.2745417
0000b0 fb 82 30 bf 25 96 b4 be b3 57 d3 bf 43 88 7e c0
       -0.6894986 -0.352708 -1.6511139 -3.9770668
0000c0 a2 4e f6 3d ee 11 d4 3f 73 51 1c c0 73 0b fd bf
       0.12026717 1.6567972 -2.4424713 -1.9769119
0000d0 4e d2 cf bf a6 5f 1c c0 3f 5b 27 bf 3e 06 1e 3f
       -1.6236055 -2.443338 -0.65373605 0.61728275
0000e0 29 62 82 bf 97 60 47 3f 92 0e 68 bf e1 52 0d 3f
       -1.0186206 0.7788176 -0.9064723 0.5520459
0000f0 25 66 87 bf 91 9f ff be 1b 79 ed bf 1e 67 7c c0
       -1.0578047 -0.49926427 -1.8552583 -3.9437938
000100 4c 14 5a c0 33 f5 ed c0 6b b6 5f bf b8 b8 35 c0
       -3.4074888 -7.4361815 -0.8738772 -2.8393993
000110 52 5c ba 3f 32 13 11 be 60 35 8d 3d 4b 1a bb bf
       1.4559424 -0.14167479 0.06894946 -1.4617399
000120 40 0d 88 3e d4 57 3c c0 83 69 bf bf 45 ab 18 c0
       0.2657261 -2.9428606 -1.4954075 -2.3854535
000130 0b d5 ad be 11 e3 a9 bf df 74 8f bf 92 c3 d9 3e
       -0.339516 -1.327242 -1.1207541 0.4253202
000140 e5 21 db 3d 71 d0 c5 bf 72 55 a2 bf 93 92 05 c0
       0.10699824 -1.5454236 -1.2682326 -2.0870712
000150 10 8f 2e 3e 71 40 e2 be a2 76 7e c0 eb 39 44 bf
       0.17046762 -0.4418979 -3.9759908 -0.76650876
000160 82 cd 19 bf e2 f0 ec bf 54 bf 2f be f9 43 bd c0
       -0.60079205 -1.8511012 -0.1716283 -5.9145474
000170 1a 4a 0b bd 58 fb 01 bf c1 ee f9 bf b2 14 84 bf
       -0.034006216 -0.50774145 -1.9525987 -1.0318816
000180 ad 88 56 bf 35 a0 54 bf 26 06 c6 bd 5e 16 b1 bf
       -0.838023 -0.83056957 -0.096691415 -1.3834951
000190 4e bc 35 bf b1 48 0d bf eb 86 9b bf bb 12 42 c0
       -0.70990455 -0.55189043 -1.2150549 -3.0323932
0001a0 22 97 25 bf 9a 9a f5 c0 51 da 93 bd 10 d1 2d c0
       -0.64683735 -7.6751223 -0.07219375 -2.7158852
0001b0 c1 90 eb bf 4a bd 9a 3e 7f c4 47 bf 08 60 91 bf
       -1.840355 0.3022254 -0.78034204 -1.1357431
0001c0 9e 5c 87 be 22 dd c7 bf c1 20 5b bd 90 15 b9 3e
       -0.2643785 -1.5614359 -0.053498033 0.36149263
0001d0 98 56 a2 bf fa 91 22 bf 99 49 4d c0 f9 bb 03 c1
       -1.2682676 -0.6350399 -3.207617 -8.233392
0001e0 d8 3a d1 bf 16 2b 8f c0 2a d1 da be c1 c9 96 bf
       -1.6346083 -4.4740095 -0.42737705 -1.178032
0001f0 c3 84 ae 3e 0f 74 14 bf 4c 05 e2 bf d9 02 ed 3e
       0.34085664 -0.5798959 -1.7657866 0.46291235
000200 2a 9e 11 c0 12 8e 0a be 97 8c 38 bf e4 c3 83 bf
       -2.2752786 -0.13530758 -0.72089523 -1.0294156
000210 71 87 66 bd 15 3a 30 be e6 bd 1f bf 4f cd 25 c0
       -0.05628151 -0.17209657 -0.6239914 -2.590656
000220 60 dc 1c c0 c0 3d 8c c0 73 23 89 3e 65 c6 a1 bf
       -2.4509506 -4.382538 0.26784858 -1.263867
000230 17 c5 27 3f 2c db 01 bc 73 2e 56 c0 8c 88 03 c0
       0.6553511 -0.00792579 -3.346585 -2.0552092
000240 c6 55 1c c0 42 d9 e0 bd 5d 59 52 be 51 8a 11 c0
       -2.4427352 -0.10978939 -0.20541902 -2.2740672
000250 d5 1d 47 bf 8d 7f d1 bd f4 e4 92 bf c1 44 22 be
       -0.77779895 -0.102294065 -1.1476121 -0.1584654
000260 0f 70 0f 3f c0 5b 6f c0 d5 fb 03 bf 0a d1 6d 3f
       0.5603036 -3.739975 -0.5155614 0.92897093
000270 e2 53 f3 bf bc f5 e3 bf 5f 2f 13 c0 9d 76 98 bf
       -1.9009974 -1.7809367 -2.2997663 -1.1911198
000280 4f cb c8 3e 9d 00 c7 be 78 17 87 bf ea e6 81 3e
       0.39217612 -0.38867655 -1.0554037 0.25371486
000290 8a d5 1d c0 e2 c0 61 bf ba 84 de bf 10 7e a9 bf
       -2.4661584 -0.8818494 -1.7384255 -1.3241596
0002a0 e1 39 1a bf ab 26 dd bf 64 0d c9 3b dd 04 28 c0
       -0.60244566 -1.7277426 0.0061356295 -2.6252968
0002b0 dd 0d f6 bf a3 4c 0f bf 5c 72 02 c0 16 a9 25 3f
       -1.9222981 -0.55976313 -2.03823 0.6471113
0002c0 2a 22 cf bf 4c df 64 c0 a6 d0 58 3d 59 b5 ac bf
       -1.6182301 -3.576129 0.052933358 -1.3492843
0002d0 8e 4c 1a 3e 22 8c 37 bf 35 ef 86 bf 0a b5 14 c0
       0.15068266 -0.716982 -1.054175 -2.3235497
0002e0 77 42 aa bf aa c7 4c bf f8 be 5d bf 3d 1e 3e bf
       -1.3301533 -0.79992163 -0.8661952 -0.7426489
0002f0 5b 84 d3 3d 60 d5 54 bf ab ec 06 c0 75 56 cc 3b
       0.10327979 -0.83138084 -2.108195 0.0062358924
000300 71 d6 e4 3e 3e 5f 37 3f 9f cb 84 bf 25 84 6d 3f
       0.44694856 0.71629703 -1.037464 0.9277976
000310 55 11 0c c0 22 bd 46 c0 0c b7 a2 bf d7 85 c6 bf
       -2.1885579 -3.1052938 -1.2712111 -1.5509595
000320 da 79 84 3e 7c 53 0e bf 7d 74 3a c0 dc 67 52 c0
       0.25874215 -0.5559614 -2.9133599 -3.287589
000330 cf 92 fd 3e 24 68 81 bf 7c c6 78 be 7f 2f 56 bf
       0.4952607 -1.0109906 -0.24294466 -0.83666223
000340 1d c9 8b 3e 16 9c d8 bf a4 66 7e bf 7d 84 21 c0
       0.27301875 -1.6922634 -0.9937537 -2.5237114
000350 99 08 96 3d 4b f3 3c bf 79 5d 94 bf 76 71 4c c0
       0.073258586 -0.73808736 -1.1591026 -3.194425
000360 48 10 7f c0 24 62 61 c0 8f 1f 15 bf a7 69 79 c0
       -3.9853687 -3.521615 -0.5825128 -3.8970735
000370 48 8b 13 be 95 b5 4a 3d 7e 79 30 3b 73 15 18 3f
       -0.144086 0.049489576 0.0026927884 0.5940773
000380 b1 24 8a 3e 27 ad 2d 3f 4c 90 e4 bf 6a e0 57 3e
       0.26981118 0.67842335 -1.7856536 0.21081701
000390 09 8d 5b c0 4f 21 d2 bf c9 d2 b7 bf d0 f0 02 3f
       -3.430483 -1.6416415 -1.4361202 0.511487
0003a0 86 f3 4b c0 68 0e 70 c0 5d b9 17 be e6 77 92 c0
       -3.1867385 -3.7508793 -0.14816804 -4.577136
0003b0 78 32 94 3f 7f 93 42 be b9 4a a7 bf f9 b2 7b bf
       1.1577902 -0.19001578 -1.3069679 -0.98319966
0003c0 58 1d a0 c0 86 5b fa bf 60 4b 43 be 3c 3c e9 bf
       -5.003582 -1.9559181 -0.19071722 -1.8221507
0003d0 19 15 e1 3e fd 9e 85 3e 8b c4 c9 bf c0 84 96 be
       0.4396141 0.2609786 -1.5763105 -0.29398155
0003e0 52 86 92 3f 29 6a e4 bf 6d e8 a7 bf 68 7e 13 be
       1.1447241 -1.7844898 -1.3117806 -0.14403689
0003f0 13 07 2c c0 fb 86 d7 bf 86 9c 8c bf ba 04 c6 bf
       -2.6879318 -1.6838068 -1.0985267 -1.5470192

l3.bias f4 [132]
000000 d2 7c af 3e fd d4 8b 3d 9d f0 ad bf 49 82 c0 bf
       0.34274918 0.06827734 -1.3589054 -1.503976
000010 dd 51 2a c0 b9 72 d9 bf 00 be 35 c0 0e ed 0c c0
       -2.6612465 -1.6988136 -2.8397217 -2.2019687
000020 ca dc a7 be 78 0a 85 3e 27 c1 71 3d a3 ed 7e bf
       -0.32785636 0.2598455 0.059022095 -0.99581355
000030 19 07 11 bf ef 4e b1 be 62 70 82 3f 7e 70 f5 bf
       -0.56651455 -0.34630534 1.0190547 -1.9174955
000040 c1 52 a5 bf 68 53 8b 3f c1 0f eb bf 8b e1 d3 3d
       -1.291588 1.0884829 -1.8364183 0.10345753
000050 5f e6 b8 be 36 c5 a0 be df d5 fa bf f6 f6 e1 bf
       -0.3611326 -0.3140046 -1.9596518 -1.7653491
000060 35 63 5b c0 77 ed cd 3e 11 8a 09 be 23 c4 72 c0
       -3.42793 0.40220234 -0.13431574 -3.7932212
000070 06 89 85 bf 4f 4a 2f 3f f8 ac f7 bf a3 4d 98 3e
       -1.0432441 0.6847276 -1.9349661 0.29746732
000080 28 1a 0c c0 9c e4 8e 3d 43 cb 92 bf 0d b9 04 c0
       -2.1890965 0.069771975 -1.146828 -2.0737946
000090 5e fe 96 be 16 55 7e be d0 94 6d be 69 67 10 3f
       -0.29490942 -0.24837145 -0.23201299 0.5640779
0000a0 7a 2a 8f bf 0f 80 89 bf af bb 80 bf 85 89 13 3d
       -1.1184838 -1.0742205 -1.0057276 0.03601982
0000b0 22 40 66 bf 57 5b 58 bf d4 c3 5a bd c5 aa 24 3e
       -0.8994161 -0.84514374 -0.053409413 0.16080768
0000c0 51 34 8c bf 55 9a 2b be 32 0c d0 bf 1c 6d f3 3f
       -1.0953466 -0.16758092 -1.6253722 1.9017673
0000d0 62 70 29 bf e6 cf a2 3e a7 65 45 be 22 3d 44 bf
       -0.6618711 0.3179924 -0.19277059 -0.7665578
0000e0 c7 97 2f bf d7 fa 35 bf 88 9b be bf d1 ae 1d bf
       -0.6859097 -0.71085876 -1.4891214 -0.61594874
0000f0 3e b2 28 3f b2 92 e8 3e 9e 0d f6 3d 96 7d 8e 3d
       0.65896976 0.4542442 0.12014316 0.06957547
000100 f1 18 80 be 65 6e 75 bf 45 71 85 3e eb 62 cc be
       -0.2501903 -0.95871574 0.2606298 -0.39919218
000110 60 fc 75 bf 09 a6 30 3f 48 82 ff be f8 2a 21 be
       -0.9608822 0.6900335 -0.49904084 -0.15739048
000120 18 e7 bf be d2 77 3d 3f 3e 10 a2 bf 26 5f 1e c0
       -0.37480998 0.74010956 -1.2661207 -2.4745574
000130 84 50 38 bf d5 03 c0 bf 5f bc a7 be e8 75 1e bf
       -0.7199786 -1.500117 -0.32760903 -0.6189866
000140 8a d9 54 3f 57 cc 11 bf be 52 42 bf f6 88 05 3f
       0.8314444 -0.5695242 -0.75907505 0.5216211
000150 e7 35 b0 bf b0 ea 5e 3f 6a df 4e 3f 6c f4 5d 3f
       -1.376645 0.87076855 0.8080965 0.86701083
000160 bc 22 4b be 9e e9 c3 bf 26 8e 6d 3c ad 0e 0b bf
       -0.19837469 -1.5305669 0.014499223 -0.5431927
000170 77 98 9b bf 96 1d 83 bf b1 e1 b5 bf f3 3b 17 c0
       -1.2155904 -1.0243404 -1.42095 -2.363034
000180 c0 68 60 bf e8 fa 01 c0 7f 9c 25 c0 de b3 d1 bf
       -0.87659836 -2.030939 -2.5876768 -1.6383016
000190 84 fe 17 bf 58 2d a3 bf 38 f3 0f bf 4c 64 ac bd
       -0.59372735 -1.2748213 -0.562305 -0.084175676
0001a0 97 c7 e2 bf 35 b1 f6 be 53 a6 12 bf 3a 4a 7c c0
       -1.771716 -0.48182073 -0.5728504 -3.9420304
0001b0 a1 b7 bc bf 9e 22 31 c0 9d ef dd bf 77 60 4a bf
       -1.4743539 -2.7677379 -1.7338749 -0.79053444
0001c0 6a 6d fc 3e c9 96 38 3e cd 71 53 bf 70 b1 7c bf
       0.49302226 0.1802627 -0.8259552 -0.9870825
0001d0 e0 c4 b8 bf d7 66 24 3e 22 ac c2 bf 1b 69 b3 3e
       -1.4435081 0.16054855 -1.5208781 0.35041127
0001e0 ad 16 8e bf 1d 5d 59 bf 34 84 93 bf c2 f0 34 be
       -1.110067 -0.84907705 -1.152472 -0.17669967
0001f0 cd 5a 8e 3e 61 d7 9a bd 71 65 ae bc 0d 52 8c bf
       0.2780365 -0.075606115 -0.021288605 -1.096254
000200 c7 4d 86 bf 70 7f d2 bd a4 81 67 bf df ba d7 3f
       -1.0492486 -0.10278213 -0.9043219 1.6853904
